…
        "description": "Trimmed down U-Net with augmentation.",
        "input shape": [
            236,
            236
        ],
        "date": "2024-04-24_20-25",
        "epochs": 149,
        "learning rate": 0.0001,
        "n_params": 29465,
        "split seed": 42
    },
    "model structure": "UNet(\n  (aug): Augmentation(\n    (aug_crop): RandomCrop(size=(236, 236), pad_if_needed=False, fill=0, padding_mode=constant)\n    (aug_flip_h): RandomHorizontalFlip(p=0.5)\n    (aug_flip_v): RandomVerticalFlip(p=0.5)\n  )\n  (encoder): Encoder(\n    (encBlocks): ModuleList(\n      (0): Block(\n        (conv1): Conv2d(3, 8, kernel_size=(3, 3), stride=(1, 1))\n        (conv2): Conv2d(8, 8, kernel_size=(3, 3), stride=(1, 1))\n      )\n      (1): Block(\n        (conv1): Conv2d(8, 16, kernel_size=(3, 3), stride=(1, 1))\n        (conv2): Conv2d(16, 16, kernel_size=(3, 3), stride=(1, 1))\n      )\n      (2): Block(\n        (conv1): Conv2d(16, 32, kernel_size=(3, 3), stride=(1, 1))\n        (conv2): Conv2d(32, 32, kernel_size=(3, 3), stride=(1, 1))\n      )\n    )\n    (pool): MaxPool2d(kernel_size=2, stride=2, padding=0, dilation=1, ceil_mode=False)\n  )\n  (decoder): Decoder(\n    (upconvs): ModuleList(\n      (0): ConvTranspose2d(32, 16, kernel_size=(2, 2), stride=(2, 2))\n      (1): ConvTranspose2d(16, 8, kernel_size=(2, 2), stride=(2, 2))\n    )\n    (dec_blocks): ModuleList(\n      (0): Block(\n        (conv1): Conv2d(32, 16, kernel_size=(3, 3), stride=(1, 1))\n        (conv2): Conv2d(16, 16, kernel_size=(3, 3), stride=(1, 1))\n      )\n      (1): Block(\n        (conv1): Conv2d(16, 8, kernel_size=(3, 3), stride=(1, 1))\n        (conv2): Conv2d(8, 8, kernel_size=(3, 3), stride=(1, 1))\n      )\n    )\n  )\n  (head): Conv2d(8, 1, kernel_size=(1, 1), stride=(1, 1))\n  (target_cropper): CenterCrop(size=torch.Size([196, 196]))\n  (loss_func): MSELoss()\n)",
    "train": [
        {
            "epoch": 0,
            "train_loss": [
                0.275390625,
                0.386962890625,
                0.289306640625,
                0.26904296875,
                0.265869140625,
                0.258056640625,
                0.2188720703125,
…
