{
    "params": {
        "architecture": "UNet",
        "description": "Trimmed down U-Net with augmentation.",
        "input shape": [
            540,
            540
        ],
        "date": "2024-04-29_11-07",
        "epochs": 99,
        "learning rate": 0.001,
        "n_params": 29465,
        "split seed": 42,
        "lr schedule": 0.995
    },
    "model structure": "UNet(\n  (encoder): Encoder(\n    (encBlocks): ModuleList(\n      (0): Block(\n        (conv1): Conv2d(3, 8, kernel_size=(3, 3), stride=(1, 1))\n        (conv2): Conv2d(8, 8, kernel_size=(3, 3), stride=(1, 1))\n      )\n      (1): Block(\n        (conv1): Conv2d(8, 16, kernel_size=(3, 3), stride=(1, 1))\n        (conv2): Conv2d(16, 16, kernel_size=(3, 3), stride=(1, 1))\n      )\n      (2): Block(\n        (conv1): Conv2d(16, 32, kernel_size=(3, 3), stride=(1, 1))\n        (conv2): Conv2d(32, 32, kernel_size=(3, 3), stride=(1, 1))\n      )\n    )\n    (pool): MaxPool2d(kernel_size=2, stride=2, padding=0, dilation=1, ceil_mode=False)\n  )\n  (decoder): Decoder(\n    (upconvs): ModuleList(\n      (0): ConvTranspose2d(32, 16, kernel_size=(2, 2), stride=(2, 2))\n      (1): ConvTranspose2d(16, 8, kernel_size=(2, 2), stride=(2, 2))\n    )\n    (dec_blocks): ModuleList(\n      (0): Block(\n        (conv1): Conv2d(32, 16, kernel_size=(3, 3), stride=(1, 1))\n        (conv2): Conv2d(16, 16, kernel_size=(3, 3), stride=(1, 1))\n      )\n      (1): Block(\n        (conv1): Conv2d(16, 8, kernel_size=(3, 3), stride=(1, 1))\n        (conv2): Conv2d(8, 8, kernel_size=(3, 3), stride=(1, 1))\n      )\n    )\n  )\n  (head): Conv2d(8, 1, kernel_size=(1, 1), stride=(1, 1))\n  (target_cropper): CenterCrop(size=torch.Size([500, 500]))\n  (loss_func): MSELoss()\n)",
    "train": [
        {
            "epoch": 0,
            "train_loss": [
                0.0301361083984375,
                0.0216522216796875,
                0.0260162353515625,
                0.033477783203125,
                0.0333251953125,
                0.024169921875,
…
